layer     filters    size              input                output
    0 conv     16  3 x 3 / 1   128 x 128 x   3   ->   128 x 128 x  16  0.014 BFLOPs
    1 max          2 x 2 / 2   128 x 128 x  16   ->    64 x  64 x  16
    2 conv     32  3 x 3 / 1    64 x  64 x  16   ->    64 x  64 x  32  0.038 BFLOPs
    3 max          2 x 2 / 2    64 x  64 x  32   ->    32 x  32 x  32
    4 conv     64  3 x 3 / 1    32 x  32 x  32   ->    32 x  32 x  64  0.038 BFLOPs
    5 max          2 x 2 / 2    32 x  32 x  64   ->    16 x  16 x  64
    6 conv    128  3 x 3 / 1    16 x  16 x  64   ->    16 x  16 x 128  0.038 BFLOPs
    7 max          2 x 2 / 2    16 x  16 x 128   ->     8 x   8 x 128
    8 conv    256  3 x 3 / 1     8 x   8 x 128   ->     8 x   8 x 256  0.038 BFLOPs
    9 max          2 x 2 / 2     8 x   8 x 256   ->     4 x   4 x 256
   10 conv    512  3 x 3 / 1     4 x   4 x 256   ->     4 x   4 x 512  0.038 BFLOPs
   11 max          2 x 2 / 1     4 x   4 x 512   ->     4 x   4 x 512
   12 conv   1024  3 x 3 / 1     4 x   4 x 512   ->     4 x   4 x1024  0.151 BFLOPs
   13 conv    256  1 x 1 / 1     4 x   4 x1024   ->     4 x   4 x 256  0.008 BFLOPs
   14 conv    512  3 x 3 / 1     4 x   4 x 256   ->     4 x   4 x 512  0.038 BFLOPs
   15 conv     21  1 x 1 / 1     4 x   4 x 512   ->     4 x   4 x  21  0.000 BFLOPs
   16 detection
   17 route  13
   18 conv    128  1 x 1 / 1     4 x   4 x 256   ->     4 x   4 x 128  0.001 BFLOPs
   19 upsample            2x     4 x   4 x 128   ->     8 x   8 x 128
   20 route  19 8
   21 conv    256  3 x 3 / 1     8 x   8 x 384   ->     8 x   8 x 256  0.113 BFLOPs
   22 conv     21  1 x 1 / 1     8 x   8 x 256   ->     8 x   8 x  21  0.001 BFLOPs
   23 detection
Loading weights from training/oxford-pet/yolov3-tiny.conv.15...yolov3-tiny-obj
 (Version 2) Done!
Learning Rate: 0.001, Momentum: 0.9, Decay: 0.0005
Loaded: 0.839682 seconds
Region 16 Avg IOU: 0.508123, Class: 0.500000, Obj: 0.500000, No Obj: 0.495305, .5R: 1.000000, .75R: 0.000000,  count: 1
Region 23 Avg IOU: 0.236414, Class: 0.363262, Obj: 0.599829, No Obj: 0.505735, .5R: 0.000000, .75R: 0.000000,  count: 3
…
